…
I1214 23:21:34.244518 11603 solver.cpp:96] Creating training net from net file: /home/xu/myWorkspace/ContinuousCRF-CNN/examples/unitnet/front-endWithoutCRF426.prototxt
I1214 23:21:34.245270 11603 net.cpp:50] Initializing net from parameters: 
state {
  phase: TRAIN
}
layer {
  name: "data"
  type: "ImageLabelmapData"
  top: "data"
  top: "label"
  include {
    phase: TRAIN
  }
  transform_param {
    mirror: true
    mean_value: 118.168
    mean_value: 99.084
    mean_value: 94.658
  }
  image_data_param {
    source: "/home/xu/SUNRGBD/list4.txt"
    batch_size: 1
    shuffle: true
    new_height: 426
    new_width: 426
    root_folder: ""
  }
}
layer {
  name: "conv1_1"
  type: "Convolution"
  bottom: "data"
  top: "conv1_1"
  param {
    lr_mult: 1
    decay_mult: 1
  }
  param {
    lr_mult: 2
    decay_mult: 0
  }
  convolution_param {
    num_output: 64
    pad: 1
    kernel_size: 3
  }
}
layer {
  name: "relu1_1"
  type: "ReLU"
  bottom: "conv1_1"
  top: "conv1_1"
}
layer {
  name: "conv1_2"
  type: "Convolution"
  bottom: "conv1_1"
  top: "conv1_2"
  param {
    lr_mult: 1
    decay_mult: 1
  }
  param {
    lr_mult: 2
    decay_mult: 0
  }
  convolution_param {
    num_output: 64
    pad: 1
    kernel_size: 3
  }
}
layer {
  name: "relu1_2"
  type: "ReLU"
  bottom: "conv1_2"
  top: "conv1_2"
}
layer {
  name: "pool1"
  type: "Pooling"
  bottom: "conv1_2"
  top: "pool1"
  top: "pool1_mask"
  pooling_param {
    pool: MAX
    kernel_size: 2
    stride: 2
  }
}
layer {
  name: "conv2_1"
  type: "Convolution"
  bottom: "pool1"
  top: "conv2_1"
  param {
    lr_mult: 1
    decay_mult: 1
  }
  param {
    lr_mult: 2
    decay_mult: 0
  }
  convolution_param {
    num_output: 128
    pad: 1
    kernel_size: 3
  }
}
layer {
  name: "relu2_1"
  type: "ReLU"
  bottom: "conv2_1"
  top: "conv2_1"
}
layer {
  name: "conv2_2"
  type: "Convolution"
  bottom: "conv2_1"
  top: "conv2_2"
  param {
    lr_mult: 1
    decay_mult: 1
  }
  param {
    lr_mult: 2
    decay_mult: 0
  }
  convolution_param {
    num_output: 128
    pad: 1
    kernel_size: 3
  }
}
layer {
  name: "relu2_2"
  type: "ReLU"
  bottom: "conv2_2"
  top: "conv2_2"
}
layer {
  name: "pool2"
  type: "Pooling"
  bottom: "conv2_2"
  top: "pool2"
  top: "pool2_mask"
  pooling_param {
    pool: MAX
    kernel_size: 2
    stride: 2
  }
}
layer {
  name: "conv3_1"
  type: "Convolution"
  bottom: "pool2"
  top: "conv3_1"
  param {
    lr_mult: 1
    decay_mult: 1
  }
  param {
    lr_mult: 2
    decay_mult: 0
  }
  convolution_param {
    num_output: 256
    pad: 1
    kernel_size: 3
  }
}
layer {
  name: "relu3_1"
  type: "ReLU"
  bottom: "conv3_1"
  top: "conv3_1"
}
layer {
  name: "conv3_2"
  type: "Convolution"
  bottom: "conv3_1"
  top: "conv3_2"
  param {
    lr_mult: 1
    decay_mult: 1
  }
  param {
    lr_mult: 2
    decay_mult: 0
  }
  convolution_param {
    num_output: 256
    pad: 1
    kernel_size: 3
  }
}
layer {
  name: "relu3_2"
  type: "ReLU"
  bottom: "conv3_2"
  top: "conv3_2"
}
layer {
  name: "conv3_3"
  type: "Convolution"
  bottom: "conv3_2"
  top: "conv3_3"
  param {
    lr_mult: 1
    decay_mult: 1
  }
  param {
    lr_mult: 2
    decay_mult: 0
  }
  convolution_param {
    num_output: 256
    pad: 1
    kernel_size: 3
  }
}
layer {
  name: "relu3_3"
  type: "ReLU"
  bottom: "conv3_3"
  top: "conv3_3"
}
layer {
  name: "pool3"
  type: "Pooling"
  bottom: "conv3_3"
  top: "pool3"
  top: "pool3_mask"
  pooling_param {
    pool: MAX
    kernel_size: 2
    stride: 2
  }
}
layer {
  name: "conv4_1"
  type: "Convolution"
  bottom: "pool3"
  top: "conv4_1"
  param {
    lr_mult: 1
    decay_mult: 1
  }
  param {
    lr_mult: 2
    decay_mult: 0
  }
  convolution_param {
    num_output: 512
    pad: 1
    kernel_size: 3
  }
}
layer {
  name: "relu4_1"
  type: "ReLU"
  bottom: "conv4_1"
  top: "conv4_1"
}
layer {
  name: "conv4_2"
  type: "Convolution"
  bottom: "conv4_1"
  top: "conv4_2"
  param {
    lr_mult: 1
    decay_mult: 1
  }
  param {
    lr_mult: 2
    decay_mult: 0
  }
  convolution_param {
    num_output: 512
    pad: 1
    kernel_size: 3
  }
}
layer {
  name: "relu4_2"
  type: "ReLU"
  bottom: "conv4_2"
  top: "conv4_2"
}
layer {
  name: "conv4_3"
  type: "Convolution"
  bottom: "conv4_2"
  top: "conv4_3"
  param {
    lr_mult: 1
    decay_mult: 1
  }
  param {
    lr_mult: 2
    decay_mult: 0
  }
  convolution_param {
    num_output: 512
    pad: 1
    kernel_size: 3
  }
}
layer {
  name: "relu4_3"
  type: "ReLU"
  bottom: "conv4_3"
  top: "conv4_3"
}
layer {
  name: "pool4"
  type: "Pooling"
  bottom: "conv4_3"
  top: "pool4"
  top: "pool4_mask"
  pooling_param {
    pool: MAX
    kernel_size: 2
    stride: 2
  }
}
layer {
  name: "conv5_1"
  type: "Convolution"
  bottom: "pool4"
  top: "conv5_1"
  param {
    lr_mult: 1
    decay_mult: 1
  }
  param {
    lr_mult: 2
    decay_mult: 0
  }
  convolution_param {
    num_output: 512
    pad: 1
    kernel_size: 3
  }
}
layer {
  name: "relu5_1"
  type: "ReLU"
  bottom: "conv5_1"
  top: "conv5_1"
}
layer {
  name: "conv5_2"
  type: "Convolution"
  bottom: "conv5_1"
  top: "conv5_2"
  param {
    lr_mult: 1
    decay_mult: 1
  }
  param {
    lr_mult: 2
    decay_mult: 0
  }
  convolution_param {
    num_output: 512
    pad: 1
    kernel_size: 3
  }
}
layer {
  name: "relu5_2"
  type: "ReLU"
  bottom: "conv5_2"
  top: "conv5_2"
}
layer {
  name: "conv5_3"
  type: "Convolution"
  bottom: "conv5_2"
  top: "conv5_3"
  param {
    lr_mult: 1
    decay_mult: 1
  }
  param {
    lr_mult: 2
    decay_mult: 0
  }
  convolution_param {
    num_output: 512
    pad: 1
    kernel_size: 3
  }
}
layer {
  name: "relu5_3"
  type: "ReLU"
  bottom: "conv5_3"
  top: "conv5_3"
}
layer {
  name: "pool5"
  type: "Pooling"
  bottom: "conv5_3"
  top: "pool5"
  pooling_param {
    pool: MAX
    kernel_size: 2
    stride: 2
  }
}
layer {
  name: "unpool5"
  type: "Unpooling"
  bottom: "pool5"
  top: "unpool5"
  unpooling_param {
    unpool: MAX
    kernel_size: 2
    stride: 2
    unpool_size: 27
  }
}
layer {
  name: "deconv5_1"
  type: "Deconvolution"
  bottom: "unpool5"
  top: "deconv5_1"
  param {
    lr_mult: 1
    decay_mult: 1
  }
  param {
    lr_mult: 2
    decay_mult: 0
  }
  convolution_param {
    num_output: 512
    pad: 1
    kernel_size: 3
    weight_filler {
      type: "gaussian"
      std: 0.01
    }
    bias_filler {
      type: "constant"
      value: 0
    }
  }
}
layer {
  name: "deBN5_1"
  type: "BN"
  bottom: "deconv5_1"
  top: "deconv5_1"
  bn_param {
    scale_filler {
      type: "constant"
      value: 1
    }
    shift_filler {
      type: "constant"
      value: 0.001
    }
    var_eps: 1e-10
    moving_average: true
    decay: 0.95
  }
}
layer {
  name: "derelu5_1"
  type: "ReLU"
  bottom: "deconv5_1"
  top: "deconv5_1"
}
layer {
  name: "deconv5_2"
  type: "Deconvolution"
  bottom: "deconv5_1"
  top: "deconv5_2"
  param {
    lr_mult: 1
    decay_mult: 1
  }
  param {
    lr_mult: 2
    decay_mult: 0
  }
  convolution_param {
    num_output: 512
    pad: 1
    kernel_size: 3
    weight_filler {
      type: "gaussian"
      std: 0.01
    }
    bias_filler {
      type: "constant"
      value: 0
    }
  }
}
layer {
  name: "deBN5_2"
  type: "BN"
  bottom: "deconv5_2"
  top: "deconv5_2"
  bn_param {
    scale_filler {
      type: "constant"
      value: 1
    }
    shift_filler {
      type: "constant"
      value: 0.001
    }
    var_eps: 1e-10
    moving_average: true
    decay: 0.95
  }
}
layer {
  name: "derelu5_2"
  type: "ReLU"
  bottom: "deconv5_2"
  top: "deconv5_2"
}
layer {
  name: "deconv5_3"
  type: "Deconvolution"
  bottom: "deconv5_2"
  top: "deconv5_3"
  param {
    lr_mult: 1
    decay_mult: 1
  }
  param {
    lr_mult: 2
    decay_mult: 0
  }
  convolution_param {
    num_output: 512
    pad: 1
    kernel_size: 3
    weight_filler {
      type: "gaussian"
      std: 0.01
    }
    bias_filler {
      type: "constant"
      value: 0
    }
  }
}
layer {
  name: "deBN5_3"
  type: "BN"
  bottom: "deconv5_3"
  top: "deconv5_3"
  bn_param {
    scale_filler {
      type: "constant"
      value: 1
    }
    shift_filler {
      type: "constant"
      value: 0.001
    }
    var_eps: 1e-10
    moving_average: true
    decay: 0.95
  }
}
layer {
  name: "derelu5_3"
  type: "ReLU"
  bottom: "deconv5_3"
  top: "deconv5_3"
}
layer {
  name: "unpool4"
  type: "Unpooling"
  bottom: "deconv5_3"
  bottom: "pool4_mask"
  top: "unpool4"
  unpooling_param {
    unpool: MAX
    kernel_size: 2
    stride: 2
    unpool_size: 54
  }
}
layer {
  name: "deconv4_1"
  type: "Deconvolution"
  bottom: "unpool4"
  top: "deconv4_1"
  param {
    lr_mult: 1
    decay_mult: 1
  }
  param {
    lr_mult: 2
    decay_mult: 0
  }
  convolution_param {
    num_output: 512
    pad: 1
    kernel_size: 3
    weight_filler {
      type: "gaussian"
      std: 0.01
    }
    bias_filler {
      type: "constant"
      value: 0
    }
  }
}
layer {
  name: "deBN4_1"
  type: "BN"
  bottom: "deconv4_1"
  top: "deconv4_1"
  bn_param {
    scale_filler {
      type: "constant"
      value: 1
    }
    shift_filler {
      type: "constant"
      value: 0.001
    }
    var_eps: 1e-10
    moving_average: true
    decay: 0.95
  }
}
layer {
  name: "derelu4_1"
  type: "ReLU"
  bottom: "deconv4_1"
  top: "deconv4_1"
}
layer {
  name: "deconv4_2"
  type: "Deconvolution"
  bottom: "deconv4_1"
  top: "deconv4_2"
  param {
    lr_mult: 1
    decay_mult: 1
  }
  param {
    lr_mult: 2
    decay_mult: 0
  }
  convolution_param {
    num_output: 512
    pad: 1
    kernel_size: 3
    weight_filler {
      type: "gaussian"
      std: 0.01
    }
    bias_filler {
      type: "constant"
      value: 0
    }
  }
}
layer {
  name: "deBN4_2"
  type: "BN"
  bottom: "deconv4_2"
  top: "deconv4_2"
  bn_param {
    scale_filler {
      type: "constant"
      value: 1
    }
    shift_filler {
      type: "constant"
      value: 0.001
    }
    var_eps: 1e-10
    moving_average: true
    decay: 0.95
  }
}
layer {
  name: "derelu4_2"
  type: "ReLU"
  bottom: "deconv4_2"
  top: "deconv4_2"
}
layer {
  name: "deconv4_3"
  type: "Deconvolution"
  bottom: "deconv4_2"
  top: "deconv4_3"
  param {
    lr_mult: 1
    decay_mult: 1
  }
  param {
    lr_mult: 2
    decay_mult: 0
  }
  convolution_param {
    num_output: 256
    pad: 1
    kernel_size: 3
    weight_filler {
      type: "gaussian"
      std: 0.01
    }
    bias_filler {
      type: "constant"
      value: 0
    }
  }
}
layer {
  name: "deBN4_3"
  type: "BN"
  bottom: "deconv4_3"
  top: "deconv4_3"
  bn_param {
    scale_filler {
      type: "constant"
      value: 1
    }
    shift_filler {
      type: "constant"
      value: 0.001
    }
    var_eps: 1e-10
    moving_average: true
    decay: 0.95
  }
}
layer {
  name: "derelu4_3"
  type: "ReLU"
  bottom: "deconv4_3"
  top: "deconv4_3"
}
layer {
  name: "unpool3"
  type: "Unpooling"
  bottom: "deconv4_3"
  bottom: "pool3_mask"
  top: "unpool3"
  unpooling_param {
    unpool: MAX
    kernel_size: 2
    stride: 2
    unpool_size: 107
  }
}
layer {
  name: "deconv3_1"
  type: "Deconvolution"
  bottom: "unpool3"
  top: "deconv3_1"
  param {
    lr_mult: 1
    decay_mult: 1
  }
  param {
    lr_mult: 2
    decay_mult: 0
  }
  convolution_param {
    num_output: 256
    pad: 1
    kernel_size: 3
    weight_filler {
      type: "gaussian"
      std: 0.01
    }
    bias_filler {
      type: "constant"
      value: 0
    }
  }
}
layer {
  name: "deBN3_1"
  type: "BN"
  bottom: "deconv3_1"
  top: "deconv3_1"
  bn_param {
    scale_filler {
      type: "constant"
      value: 1
    }
    shift_filler {
      type: "constant"
      value: 0.001
    }
    var_eps: 1e-10
    moving_average: true
    decay: 0.95
  }
}
layer {
  name: "derelu3_1"
  type: "ReLU"
  bottom: "deconv3_1"
  top: "deconv3_1"
}
layer {
  name: "deconv3_2"
  type: "Deconvolution"
  bottom: "deconv3_1"
  top: "deconv3_2"
  param {
    lr_mult: 1
    decay_mult: 1
  }
  param {
    lr_mult: 2
    decay_mult: 0
  }
  convolution_param {
    num_output: 256
    pad: 1
    kernel_size: 3
    weight_filler {
      type: "gaussian"
      std: 0.01
    }
    bias_filler {
      type: "constant"
      value: 0
    }
  }
}
layer {
  name: "deBN3_2"
  type: "BN"
  bottom: "deconv3_2"
  top: "deconv3_2"
  bn_param {
    scale_filler {
      type: "constant"
      value: 1
    }
    shift_filler {
      type: "constant"
      value: 0.001
    }
    var_eps: 1e-10
    moving_average: true
    decay: 0.95
  }
}
layer {
  name: "derelu3_2"
  type: "ReLU"
  bottom: "deconv3_2"
  top: "deconv3_2"
}
layer {
  name: "deconv3_3"
  type: "Deconvolution"
  bottom: "deconv3_2"
  top: "deconv3_3"
  param {
    lr_mult: 1
    decay_mult: 1
  }
  param {
    lr_mult: 2
    decay_mult: 0
  }
  convolution_param {
    num_output: 128
    pad: 1
    kernel_size: 3
    weight_filler {
      type: "gaussian"
      std: 0.01
    }
    bias_filler {
      type: "constant"
      value: 0
    }
  }
}
layer {
  name: "deBN3_3"
  type: "BN"
  bottom: "deconv3_3"
  top: "deconv3_3"
  bn_param {
    scale_filler {
      type: "constant"
      value: 1
    }
    shift_filler {
      type: "constant"
      value: 0.001
    }
    var_eps: 1e-10
    moving_average: true
    decay: 0.95
  }
}
layer {
  name: "derelu3_3"
  type: "ReLU"
  bottom: "deconv3_3"
  top: "deconv3_3"
}
layer {
  name: "unpool2"
  type: "Unpooling"
  bottom: "deconv3_3"
  bottom: "pool2_mask"
  top: "unpool2"
  unpooling_param {
    unpool: MAX
    kernel_size: 2
    stride: 2
    unpool_size: 213
  }
}
layer {
  name: "deconv2_1"
  type: "Deconvolution"
  bottom: "unpool2"
  top: "deconv2_1"
  param {
    lr_mult: 1
    decay_mult: 1
  }
  param {
    lr_mult: 2
    decay_mult: 0
  }
  convolution_param {
    num_output: 128
    pad: 1
    kernel_size: 3
    weight_filler {
      type: "gaussian"
      std: 0.01
    }
    bias_filler {
      type: "constant"
      value: 0
    }
  }
}
layer {
  name: "deBN2_1"
  type: "BN"
  bottom: "deconv2_1"
  top: "deconv2_1"
  bn_param {
    scale_filler {
      type: "constant"
      value: 1
    }
    shift_filler {
      type: "constant"
      value: 0.001
    }
    var_eps: 1e-10
    moving_average: true
    decay: 0.95
  }
}
layer {
  name: "derelu2_1"
  type: "ReLU"
  bottom: "deconv2_1"
  top: "deconv2_1"
}
layer {
  name: "deconv2_2"
  type: "Deconvolution"
  bottom: "deconv2_1"
  top: "deconv2_2"
  param {
    lr_mult: 1
    decay_mult: 1
  }
  param {
    lr_mult: 2
    decay_mult: 0
  }
  convolution_param {
    num_output: 64
    pad: 1
    kernel_size: 3
    weight_filler {
      type: "gaussian"
      std: 0.01
    }
    bias_filler {
      type: "constant"
      value: 0
    }
  }
}
layer {
  name: "deBN2_2"
  type: "BN"
  bottom: "deconv2_2"
  top: "deconv2_2"
  bn_param {
    scale_filler {
      type: "constant"
      value: 1
    }
    shift_filler {
      type: "constant"
      value: 0.001
    }
    var_eps: 1e-10
    moving_average: true
    decay: 0.95
  }
}
layer {
  name: "derelu2_2"
  type: "ReLU"
  bottom: "deconv2_2"
  top: "deconv2_2"
}
layer {
  name: "unpool1"
  type: "Unpooling"
  bottom: "deconv2_2"
  bottom: "pool1_mask"
  top: "unpool1"
  unpooling_param {
    unpool: MAX
    kernel_size: 2
    stride: 2
    unpool_size: 426
  }
}
layer {
  name: "deconv1_1"
  type: "Deconvolution"
  bottom: "unpool1"
  top: "deconv1_1"
  param {
    lr_mult: 1
    decay_mult: 1
  }
  param {
    lr_mult: 2
    decay_mult: 0
  }
  convolution_param {
    num_output: 64
    pad: 1
    kernel_size: 3
    weight_filler {
      type: "gaussian"
      std: 0.01
    }
    bias_filler {
      type: "constant"
      value: 0
    }
  }
}
layer {
  name: "deBN1_1"
  type: "BN"
  bottom: "deconv1_1"
  top: "deconv1_1"
  bn_param {
    scale_filler {
      type: "constant"
      value: 1
    }
    shift_filler {
      type: "constant"
      value: 0.001
    }
    var_eps: 1e-10
    moving_average: true
    decay: 0.95
  }
}
layer {
  name: "derelu1_1"
  type: "ReLU"
  bottom: "deconv1_1"
  top: "deconv1_1"
}
layer {
  name: "deconv1_2"
  type: "Deconvolution"
  bottom: "deconv1_1"
  top: "deconv1_2"
  param {
    lr_mult: 1
    decay_mult: 1
  }
  param {
    lr_mult: 2
    decay_mult: 0
  }
  convolution_param {
    num_output: 64
    pad: 1
    kernel_size: 3
    weight_filler {
      type: "gaussian"
      std: 0.01
    }
    bias_filler {
      type: "constant"
      value: 0
    }
  }
}
layer {
  name: "deBN1_2"
  type: "BN"
  bottom: "deconv1_2"
  top: "deconv1_2"
  bn_param {
    scale_filler {
      type: "constant"
      value: 1
    }
    shift_filler {
      type: "constant"
      value: 0.001
    }
    var_eps: 1e-10
    moving_average: true
    decay: 0.95
  }
}
layer {
  name: "derelu1_2"
  type: "ReLU"
  bottom: "deconv1_2"
  top: "deconv1_2"
}
layer {
  name: "score-map1"
  type: "Deconvolution"
  bottom: "deconv1_2"
  top: "score-map1"
  param {
    lr_mult: 1
    decay_mult: 1
  }
  param {
    lr_mult: 2
    decay_mult: 0
  }
  convolution_param {
    num_output: 1
    kernel_size: 1
    engine: CAFFE
  }
}
layer {
  name: "loss"
  type: "EuclideanLoss"
  bottom: "label"
  bottom: "score-map1"
  top: "loss"
  include {
    phase: TRAIN
  }
}
I1214 23:21:34.245450 11603 layer_factory.hpp:76] Creating layer data
I1214 23:21:34.245473 11603 net.cpp:111] Creating Layer data
I1214 23:21:34.245479 11603 net.cpp:434] data -> data
I1214 23:21:34.245497 11603 net.cpp:434] data -> label
I1214 23:21:34.245546 11603 image_labelmap_data_layer.cpp:40] Opening file /home/xu/SUNRGBD/list4.txt
I1214 23:21:34.260502 11603 image_labelmap_data_layer.cpp:50] Shuffling data
I1214 23:21:34.260802 11603 image_labelmap_data_layer.cpp:55] A total of 2003 images.
I1214 23:21:34.447785 11603 image_labelmap_data_layer.cpp:109] output data size: 1,3,426,426
I1214 23:21:34.447809 11603 image_labelmap_data_layer.cpp:112] output label size: 1,1,426,426
I1214 23:21:34.450141 11603 net.cpp:156] Setting up data
I1214 23:21:34.450186 11603 net.cpp:164] Top shape: 1 3 426 426 (544428)
I1214 23:21:34.450192 11603 net.cpp:164] Top shape: 1 1 426 426 (181476)
I1214 23:21:34.450201 11603 layer_factory.hpp:76] Creating layer conv1_1
I1214 23:21:34.450219 11603 net.cpp:111] Creating Layer conv1_1
I1214 23:21:34.450227 11603 net.cpp:478] conv1_1 <- data
I1214 23:21:34.450243 11603 net.cpp:434] conv1_1 -> conv1_1
I1214 23:21:34.514374 11603 net.cpp:156] Setting up conv1_1
I1214 23:21:34.514396 11603 net.cpp:164] Top shape: 1 64 426 426 (11614464)
I1214 23:21:34.514415 11603 layer_factory.hpp:76] Creating layer relu1_1
I1214 23:21:34.514423 11603 net.cpp:111] Creating Layer relu1_1
I1214 23:21:34.514426 11603 net.cpp:478] relu1_1 <- conv1_1
I1214 23:21:34.514431 11603 net.cpp:420] relu1_1 -> conv1_1 (in-place)
I1214 23:21:34.514485 11603 net.cpp:156] Setting up relu1_1
I1214 23:21:34.514490 11603 net.cpp:164] Top shape: 1 64 426 426 (11614464)
I1214 23:21:34.514493 11603 layer_factory.hpp:76] Creating layer conv1_2
I1214 23:21:34.514498 11603 net.cpp:111] Creating Layer conv1_2
I1214 23:21:34.514502 11603 net.cpp:478] conv1_2 <- conv1_1
I1214 23:21:34.514505 11603 net.cpp:434] conv1_2 -> conv1_2
I1214 23:21:34.515072 11603 net.cpp:156] Setting up conv1_2
I1214 23:21:34.515082 11603 net.cpp:164] Top shape: 1 64 426 426 (11614464)
I1214 23:21:34.515089 11603 layer_factory.hpp:76] Creating layer relu1_2
I1214 23:21:34.515095 11603 net.cpp:111] Creating Layer relu1_2
I1214 23:21:34.515099 11603 net.cpp:478] relu1_2 <- conv1_2
I1214 23:21:34.515102 11603 net.cpp:420] relu1_2 -> conv1_2 (in-place)
I1214 23:21:34.515142 11603 net.cpp:156] Setting up relu1_2
I1214 23:21:34.515147 11603 net.cpp:164] Top shape: 1 64 426 426 (11614464)
I1214 23:21:34.515151 11603 layer_factory.hpp:76] Creating layer pool1
I1214 23:21:34.515154 11603 layer_factory.cpp:60] CUDNN does not support padding or multiple tops. Using Caffe's own pooling layer.
I1214 23:21:34.515159 11603 net.cpp:111] Creating Layer pool1
I1214 23:21:34.515162 11603 net.cpp:478] pool1 <- conv1_2
I1214 23:21:34.515166 11603 net.cpp:434] pool1 -> pool1
I1214 23:21:34.515177 11603 net.cpp:434] pool1 -> pool1_mask
I1214 23:21:34.515187 11603 net.cpp:156] Setting up pool1
I1214 23:21:34.515192 11603 net.cpp:164] Top shape: 1 64 213 213 (2903616)
I1214 23:21:34.515195 11603 net.cpp:164] Top shape: 1 64 213 213 (2903616)
I1214 23:21:34.515198 11603 layer_factory.hpp:76] Creating layer conv2_1
I1214 23:21:34.515202 11603 net.cpp:111] Creating Layer conv2_1
I1214 23:21:34.515205 11603 net.cpp:478] conv2_1 <- pool1
I1214 23:21:34.515218 11603 net.cpp:434] conv2_1 -> conv2_1
I1214 23:21:34.515400 11603 net.cpp:156] Setting up conv2_1
I1214 23:21:34.515405 11603 net.cpp:164] Top shape: 1 128 213 213 (5807232)
I1214 23:21:34.515411 11603 layer_factory.hpp:76] Creating layer relu2_1
I1214 23:21:34.515415 11603 net.cpp:111] Creating Layer relu2_1
I1214 23:21:34.515419 11603 net.cpp:478] relu2_1 <- conv2_1
I1214 23:21:34.515422 11603 net.cpp:420] relu2_1 -> conv2_1 (in-place)
I1214 23:21:34.515718 11603 net.cpp:156] Setting up relu2_1
I1214 23:21:34.515727 11603 net.cpp:164] Top shape: 1 128 213 213 (5807232)
I1214 23:21:34.515730 11603 layer_factory.hpp:76] Creating layer conv2_2
I1214 23:21:34.515735 11603 net.cpp:111] Creating Layer conv2_2
I1214 23:21:34.515739 11603 net.cpp:478] conv2_2 <- conv2_1
I1214 23:21:34.515743 11603 net.cpp:434] conv2_2 -> conv2_2
I1214 23:21:34.515961 11603 net.cpp:156] Setting up conv2_2
I1214 23:21:34.515966 11603 net.cpp:164] Top shape: 1 128 213 213 (5807232)
I1214 23:21:34.515972 11603 layer_factory.hpp:76] Creating layer relu2_2
I1214 23:21:34.515976 11603 net.cpp:111] Creating Layer relu2_2
I1214 23:21:34.515978 11603 net.cpp:478] relu2_2 <- conv2_2
I1214 23:21:34.515982 11603 net.cpp:420] relu2_2 -> conv2_2 (in-place)
I1214 23:21:34.516021 11603 net.cpp:156] Setting up relu2_2
I1214 23:21:34.516026 11603 net.cpp:164] Top shape: 1 128 213 213 (5807232)
I1214 23:21:34.516028 11603 layer_factory.hpp:76] Creating layer pool2
I1214 23:21:34.516031 11603 layer_factory.cpp:60] CUDNN does not support padding or multiple tops. Using Caffe's own pooling layer.
I1214 23:21:34.516036 11603 net.cpp:111] Creating Layer pool2
I1214 23:21:34.516037 11603 net.cpp:478] pool2 <- conv2_2
I1214 23:21:34.516041 11603 net.cpp:434] pool2 -> pool2
I1214 23:21:34.516047 11603 net.cpp:434] pool2 -> pool2_mask
I1214 23:21:34.516052 11603 net.cpp:156] Setting up pool2
I1214 23:21:34.516055 11603 net.cpp:164] Top shape: 1 128 107 107 (1465472)
I1214 23:21:34.516058 11603 net.cpp:164] Top shape: 1 128 107 107 (1465472)
I1214 23:21:34.516062 11603 layer_factory.hpp:76] Creating layer conv3_1
I1214 23:21:34.516065 11603 net.cpp:111] Creating Layer conv3_1
I1214 23:21:34.516068 11603 net.cpp:478] conv3_1 <- pool2
I1214 23:21:34.516072 11603 net.cpp:434] conv3_1 -> conv3_1
I1214 23:21:34.516715 11603 net.cpp:156] Setting up conv3_1
I1214 23:21:34.516724 11603 net.cpp:164] Top shape: 1 256 107 107 (2930944)
I1214 23:21:34.516731 11603 layer_factory.hpp:76] Creating layer relu3_1
I1214 23:21:34.516736 11603 net.cpp:111] Creating Layer relu3_1
I1214 23:21:34.516739 11603 net.cpp:478] relu3_1 <- conv3_1
I1214 23:21:34.516744 11603 net.cpp:420] relu3_1 -> conv3_1 (in-place)
I1214 23:21:34.516789 11603 net.cpp:156] Setting up relu3_1
I1214 23:21:34.516794 11603 net.cpp:164] Top shape: 1 256 107 107 (2930944)
I1214 23:21:34.516798 11603 layer_factory.hpp:76] Creating layer conv3_2
I1214 23:21:34.516803 11603 net.cpp:111] Creating Layer conv3_2
I1214 23:21:34.516805 11603 net.cpp:478] conv3_2 <- conv3_1
I1214 23:21:34.516810 11603 net.cpp:434] conv3_2 -> conv3_2
I1214 23:21:34.517701 11603 net.cpp:156] Setting up conv3_2
I1214 23:21:34.517711 11603 net.cpp:164] Top shape: 1 256 107 107 (2930944)
I1214 23:21:34.517716 11603 layer_factory.hpp:76] Creating layer relu3_2
I1214 23:21:34.517721 11603 net.cpp:111] Creating Layer relu3_2
I1214 23:21:34.517724 11603 net.cpp:478] relu3_2 <- conv3_2
I1214 23:21:34.517729 11603 net.cpp:420] relu3_2 -> conv3_2 (in-place)
I1214 23:21:34.518054 11603 net.cpp:156] Setting up relu3_2
I1214 23:21:34.518061 11603 net.cpp:164] Top shape: 1 256 107 107 (2930944)
I1214 23:21:34.518072 11603 layer_factory.hpp:76] Creating layer conv3_3
I1214 23:21:34.518079 11603 net.cpp:111] Creating Layer conv3_3
I1214 23:21:34.518081 11603 net.cpp:478] conv3_3 <- conv3_2
I1214 23:21:34.518086 11603 net.cpp:434] conv3_3 -> conv3_3
I1214 23:21:34.518986 11603 net.cpp:156] Setting up conv3_3
I1214 23:21:34.518995 11603 net.cpp:164] Top shape: 1 256 107 107 (2930944)
I1214 23:21:34.518999 11603 layer_factory.hpp:76] Creating layer relu3_3
I1214 23:21:34.519014 11603 net.cpp:111] Creating Layer relu3_3
I1214 23:21:34.519018 11603 net.cpp:478] relu3_3 <- conv3_3
I1214 23:21:34.519022 11603 net.cpp:420] relu3_3 -> conv3_3 (in-place)
I1214 23:21:34.519067 11603 net.cpp:156] Setting up relu3_3
I1214 23:21:34.519071 11603 net.cpp:164] Top shape: 1 256 107 107 (2930944)
I1214 23:21:34.519073 11603 layer_factory.hpp:76] Creating layer pool3
I1214 23:21:34.519078 11603 layer_factory.cpp:60] CUDNN does not support padding or multiple tops. Using Caffe's own pooling layer.
I1214 23:21:34.519083 11603 net.cpp:111] Creating Layer pool3
I1214 23:21:34.519084 11603 net.cpp:478] pool3 <- conv3_3
I1214 23:21:34.519088 11603 net.cpp:434] pool3 -> pool3
I1214 23:21:34.519094 11603 net.cpp:434] pool3 -> pool3_mask
I1214 23:21:34.519099 11603 net.cpp:156] Setting up pool3
I1214 23:21:34.519103 11603 net.cpp:164] Top shape: 1 256 54 54 (746496)
I1214 23:21:34.519105 11603 net.cpp:164] Top shape: 1 256 54 54 (746496)
I1214 23:21:34.519109 11603 layer_factory.hpp:76] Creating layer conv4_1
I1214 23:21:34.519112 11603 net.cpp:111] Creating Layer conv4_1
I1214 23:21:34.519114 11603 net.cpp:478] conv4_1 <- pool3
I1214 23:21:34.519119 11603 net.cpp:434] conv4_1 -> conv4_1
I1214 23:21:34.520730 11603 net.cpp:156] Setting up conv4_1
I1214 23:21:34.520745 11603 net.cpp:164] Top shape: 1 512 54 54 (1492992)
I1214 23:21:34.520752 11603 layer_factory.hpp:76] Creating layer relu4_1
I1214 23:21:34.520758 11603 net.cpp:111] Creating Layer relu4_1
I1214 23:21:34.520762 11603 net.cpp:478] relu4_1 <- conv4_1
I1214 23:21:34.520766 11603 net.cpp:420] relu4_1 -> conv4_1 (in-place)
I1214 23:21:34.520812 11603 net.cpp:156] Setting up relu4_1
I1214 23:21:34.520817 11603 net.cpp:164] Top shape: 1 512 54 54 (1492992)
I1214 23:21:34.520819 11603 layer_factory.hpp:76] Creating layer conv4_2
I1214 23:21:34.520823 11603 net.cpp:111] Creating Layer conv4_2
I1214 23:21:34.520828 11603 net.cpp:478] conv4_2 <- conv4_1
I1214 23:21:34.520830 11603 net.cpp:434] conv4_2 -> conv4_2
I1214 23:21:34.523217 11603 net.cpp:156] Setting up conv4_2
I1214 23:21:34.523243 11603 net.cpp:164] Top shape: 1 512 54 54 (1492992)
I1214 23:21:34.523254 11603 layer_factory.hpp:76] Creating layer relu4_2
I1214 23:21:34.523262 11603 net.cpp:111] Creating Layer relu4_2
I1214 23:21:34.523265 11603 net.cpp:478] relu4_2 <- conv4_2
I1214 23:21:34.523270 11603 net.cpp:420] relu4_2 -> conv4_2 (in-place)
I1214 23:21:34.523317 11603 net.cpp:156] Setting up relu4_2
I1214 23:21:34.523322 11603 net.cpp:164] Top shape: 1 512 54 54 (1492992)
I1214 23:21:34.523325 11603 layer_factory.hpp:76] Creating layer conv4_3
I1214 23:21:34.523331 11603 net.cpp:111] Creating Layer conv4_3
I1214 23:21:34.523334 11603 net.cpp:478] conv4_3 <- conv4_2
I1214 23:21:34.523337 11603 net.cpp:434] conv4_3 -> conv4_3
I1214 23:21:34.525868 11603 net.cpp:156] Setting up conv4_3
I1214 23:21:34.525892 11603 net.cpp:164] Top shape: 1 512 54 54 (1492992)
I1214 23:21:34.525900 11603 layer_factory.hpp:76] Creating layer relu4_3
I1214 23:21:34.525908 11603 net.cpp:111] Creating Layer relu4_3
I1214 23:21:34.525913 11603 net.cpp:478] relu4_3 <- conv4_3
I1214 23:21:34.525918 11603 net.cpp:420] relu4_3 -> conv4_3 (in-place)
I1214 23:21:34.525965 11603 net.cpp:156] Setting up relu4_3
I1214 23:21:34.525970 11603 net.cpp:164] Top shape: 1 512 54 54 (1492992)
I1214 23:21:34.525974 11603 layer_factory.hpp:76] Creating layer pool4
I1214 23:21:34.525976 11603 layer_factory.cpp:60] CUDNN does not support padding or multiple tops. Using Caffe's own pooling layer.
I1214 23:21:34.525982 11603 net.cpp:111] Creating Layer pool4
I1214 23:21:34.525985 11603 net.cpp:478] pool4 <- conv4_3
I1214 23:21:34.525995 11603 net.cpp:434] pool4 -> pool4
I1214 23:21:34.526000 11603 net.cpp:434] pool4 -> pool4_mask
I1214 23:21:34.526005 11603 net.cpp:156] Setting up pool4
I1214 23:21:34.526008 11603 net.cpp:164] Top shape: 1 512 27 27 (373248)
I1214 23:21:34.526012 11603 net.cpp:164] Top shape: 1 512 27 27 (373248)
I1214 23:21:34.526015 11603 layer_factory.hpp:76] Creating layer conv5_1
I1214 23:21:34.526026 11603 net.cpp:111] Creating Layer conv5_1
I1214 23:21:34.526028 11603 net.cpp:478] conv5_1 <- pool4
I1214 23:21:34.526033 11603 net.cpp:434] conv5_1 -> conv5_1
I1214 23:21:34.528381 11603 net.cpp:156] Setting up conv5_1
I1214 23:21:34.528404 11603 net.cpp:164] Top shape: 1 512 27 27 (373248)
I1214 23:21:34.528411 11603 layer_factory.hpp:76] Creating layer relu5_1
I1214 23:21:34.528420 11603 net.cpp:111] Creating Layer relu5_1
I1214 23:21:34.528424 11603 net.cpp:478] relu5_1 <- conv5_1
I1214 23:21:34.528430 11603 net.cpp:420] relu5_1 -> conv5_1 (in-place)
I1214 23:21:34.528476 11603 net.cpp:156] Setting up relu5_1
I1214 23:21:34.528482 11603 net.cpp:164] Top shape: 1 512 27 27 (373248)
I1214 23:21:34.528484 11603 layer_factory.hpp:76] Creating layer conv5_2
I1214 23:21:34.528491 11603 net.cpp:111] Creating Layer conv5_2
I1214 23:21:34.528493 11603 net.cpp:478] conv5_2 <- conv5_1
I1214 23:21:34.528497 11603 net.cpp:434] conv5_2 -> conv5_2
I1214 23:21:34.530619 11603 net.cpp:156] Setting up conv5_2
I1214 23:21:34.530644 11603 net.cpp:164] Top shape: 1 512 27 27 (373248)
I1214 23:21:34.530652 11603 layer_factory.hpp:76] Creating layer relu5_2
I1214 23:21:34.530659 11603 net.cpp:111] Creating Layer relu5_2
I1214 23:21:34.530663 11603 net.cpp:478] relu5_2 <- conv5_2
I1214 23:21:34.530668 11603 net.cpp:420] relu5_2 -> conv5_2 (in-place)
I1214 23:21:34.530714 11603 net.cpp:156] Setting up relu5_2
I1214 23:21:34.530719 11603 net.cpp:164] Top shape: 1 512 27 27 (373248)
I1214 23:21:34.530722 11603 layer_factory.hpp:76] Creating layer conv5_3
I1214 23:21:34.530727 11603 net.cpp:111] Creating Layer conv5_3
I1214 23:21:34.530730 11603 net.cpp:478] conv5_3 <- conv5_2
I1214 23:21:34.530735 11603 net.cpp:434] conv5_3 -> conv5_3
I1214 23:21:34.534595 11603 net.cpp:156] Setting up conv5_3
I1214 23:21:34.534618 11603 net.cpp:164] Top shape: 1 512 27 27 (373248)
I1214 23:21:34.534627 11603 layer_factory.hpp:76] Creating layer relu5_3
I1214 23:21:34.534636 11603 net.cpp:111] Creating Layer relu5_3
I1214 23:21:34.534641 11603 net.cpp:478] relu5_3 <- conv5_3
I1214 23:21:34.534646 11603 net.cpp:420] relu5_3 -> conv5_3 (in-place)
I1214 23:21:34.534692 11603 net.cpp:156] Setting up relu5_3
I1214 23:21:34.534696 11603 net.cpp:164] Top shape: 1 512 27 27 (373248)
I1214 23:21:34.534699 11603 layer_factory.hpp:76] Creating layer pool5
I1214 23:21:34.534704 11603 net.cpp:111] Creating Layer pool5
I1214 23:21:34.534708 11603 net.cpp:478] pool5 <- conv5_3
I1214 23:21:34.534713 11603 net.cpp:434] pool5 -> pool5
I1214 23:21:34.534780 11603 net.cpp:156] Setting up pool5
I1214 23:21:34.534785 11603 net.cpp:164] Top shape: 1 512 14 14 (100352)
I1214 23:21:34.534788 11603 layer_factory.hpp:76] Creating layer unpool5
I1214 23:21:34.534798 11603 net.cpp:111] Creating Layer unpool5
I1214 23:21:34.534801 11603 net.cpp:478] unpool5 <- pool5
I1214 23:21:34.534806 11603 net.cpp:434] unpool5 -> unpool5
I1214 23:21:34.534812 11603 net.cpp:156] Setting up unpool5
I1214 23:21:34.534816 11603 net.cpp:164] Top shape: 1 512 27 27 (373248)
I1214 23:21:34.534818 11603 layer_factory.hpp:76] Creating layer deconv5_1
I1214 23:21:34.534824 11603 net.cpp:111] Creating Layer deconv5_1
I1214 23:21:34.534826 11603 net.cpp:478] deconv5_1 <- unpool5
I1214 23:21:34.534832 11603 net.cpp:434] deconv5_1 -> deconv5_1
I1214 23:21:34.566234 11603 net.cpp:156] Setting up deconv5_1
I1214 23:21:34.566267 11603 net.cpp:164] Top shape: 1 512 27 27 (373248)
I1214 23:21:34.566273 11603 layer_factory.hpp:76] Creating layer deBN5_1
I1214 23:21:34.566303 11603 net.cpp:111] Creating Layer deBN5_1
I1214 23:21:34.566306 11603 net.cpp:478] deBN5_1 <- deconv5_1
I1214 23:21:34.566315 11603 net.cpp:420] deBN5_1 -> deconv5_1 (in-place)
I1214 23:21:34.566335 11603 net.cpp:156] Setting up deBN5_1
I1214 23:21:34.566340 11603 net.cpp:164] Top shape: 1 512 27 27 (373248)
I1214 23:21:34.566345 11603 layer_factory.hpp:76] Creating layer derelu5_1
I1214 23:21:34.566349 11603 net.cpp:111] Creating Layer derelu5_1
I1214 23:21:34.566352 11603 net.cpp:478] derelu5_1 <- deconv5_1
I1214 23:21:34.566372 11603 net.cpp:420] derelu5_1 -> deconv5_1 (in-place)
I1214 23:21:34.566444 11603 net.cpp:156] Setting up derelu5_1
I1214 23:21:34.566449 11603 net.cpp:164] Top shape: 1 512 27 27 (373248)
I1214 23:21:34.566452 11603 layer_factory.hpp:76] Creating layer deconv5_2
I1214 23:21:34.566457 11603 net.cpp:111] Creating Layer deconv5_2
I1214 23:21:34.566460 11603 net.cpp:478] deconv5_2 <- deconv5_1
I1214 23:21:34.566465 11603 net.cpp:434] deconv5_2 -> deconv5_2
I1214 23:21:34.584188 11603 net.cpp:156] Setting up deconv5_2
I1214 23:21:34.584206 11603 net.cpp:164] Top shape: 1 512 27 27 (373248)
I1214 23:21:34.584219 11603 layer_factory.hpp:76] Creating layer deBN5_2
I1214 23:21:34.584226 11603 net.cpp:111] Creating Layer deBN5_2
I1214 23:21:34.584229 11603 net.cpp:478] deBN5_2 <- deconv5_2
I1214 23:21:34.584235 11603 net.cpp:420] deBN5_2 -> deconv5_2 (in-place)
I1214 23:21:34.584251 11603 net.cpp:156] Setting up deBN5_2
I1214 23:21:34.584255 11603 net.cpp:164] Top shape: 1 512 27 27 (373248)
I1214 23:21:34.584260 11603 layer_factory.hpp:76] Creating layer derelu5_2
I1214 23:21:34.584265 11603 net.cpp:111] Creating Layer derelu5_2
I1214 23:21:34.584267 11603 net.cpp:478] derelu5_2 <- deconv5_2
I1214 23:21:34.584270 11603 net.cpp:420] derelu5_2 -> deconv5_2 (in-place)
I1214 23:21:34.584342 11603 net.cpp:156] Setting up derelu5_2
I1214 23:21:34.584347 11603 net.cpp:164] Top shape: 1 512 27 27 (373248)
I1214 23:21:34.584349 11603 layer_factory.hpp:76] Creating layer deconv5_3
I1214 23:21:34.584355 11603 net.cpp:111] Creating Layer deconv5_3
I1214 23:21:34.584358 11603 net.cpp:478] deconv5_3 <- deconv5_2
I1214 23:21:34.584362 11603 net.cpp:434] deconv5_3 -> deconv5_3
I1214 23:21:34.602082 11603 net.cpp:156] Setting up deconv5_3
I1214 23:21:34.602107 11603 net.cpp:164] Top shape: 1 512 27 27 (373248)
I1214 23:21:34.602113 11603 layer_factory.hpp:76] Creating layer deBN5_3
I1214 23:21:34.602121 11603 net.cpp:111] Creating Layer deBN5_3
I1214 23:21:34.602124 11603 net.cpp:478] deBN5_3 <- deconv5_3
I1214 23:21:34.602130 11603 net.cpp:420] deBN5_3 -> deconv5_3 (in-place)
I1214 23:21:34.602146 11603 net.cpp:156] Setting up deBN5_3
I1214 23:21:34.602150 11603 net.cpp:164] Top shape: 1 512 27 27 (373248)
I1214 23:21:34.602155 11603 layer_factory.hpp:76] Creating layer derelu5_3
I1214 23:21:34.602159 11603 net.cpp:111] Creating Layer derelu5_3
I1214 23:21:34.602161 11603 net.cpp:478] derelu5_3 <- deconv5_3
I1214 23:21:34.602165 11603 net.cpp:420] derelu5_3 -> deconv5_3 (in-place)
I1214 23:21:34.602239 11603 net.cpp:156] Setting up derelu5_3
I1214 23:21:34.602244 11603 net.cpp:164] Top shape: 1 512 27 27 (373248)
I1214 23:21:34.602246 11603 layer_factory.hpp:76] Creating layer unpool4
I1214 23:21:34.602252 11603 net.cpp:111] Creating Layer unpool4
I1214 23:21:34.602254 11603 net.cpp:478] unpool4 <- deconv5_3
I1214 23:21:34.602258 11603 net.cpp:478] unpool4 <- pool4_mask
I1214 23:21:34.602262 11603 net.cpp:434] unpool4 -> unpool4
I1214 23:21:34.602268 11603 net.cpp:156] Setting up unpool4
I1214 23:21:34.602272 11603 net.cpp:164] Top shape: 1 512 54 54 (1492992)
I1214 23:21:34.602274 11603 layer_factory.hpp:76] Creating layer deconv4_1
I1214 23:21:34.602280 11603 net.cpp:111] Creating Layer deconv4_1
I1214 23:21:34.602283 11603 net.cpp:478] deconv4_1 <- unpool4
I1214 23:21:34.602288 11603 net.cpp:434] deconv4_1 -> deconv4_1
I1214 23:21:34.619820 11603 net.cpp:156] Setting up deconv4_1
I1214 23:21:34.619843 11603 net.cpp:164] Top shape: 1 512 54 54 (1492992)
I1214 23:21:34.619850 11603 layer_factory.hpp:76] Creating layer deBN4_1
I1214 23:21:34.619858 11603 net.cpp:111] Creating Layer deBN4_1
I1214 23:21:34.619863 11603 net.cpp:478] deBN4_1 <- deconv4_1
I1214 23:21:34.619874 11603 net.cpp:420] deBN4_1 -> deconv4_1 (in-place)
I1214 23:21:34.619899 11603 net.cpp:156] Setting up deBN4_1
I1214 23:21:34.619904 11603 net.cpp:164] Top shape: 1 512 54 54 (1492992)
I1214 23:21:34.619909 11603 layer_factory.hpp:76] Creating layer derelu4_1
I1214 23:21:34.619912 11603 net.cpp:111] Creating Layer derelu4_1
I1214 23:21:34.619915 11603 net.cpp:478] derelu4_1 <- deconv4_1
I1214 23:21:34.619925 11603 net.cpp:420] derelu4_1 -> deconv4_1 (in-place)
I1214 23:21:34.620327 11603 net.cpp:156] Setting up derelu4_1
I1214 23:21:34.620337 11603 net.cpp:164] Top shape: 1 512 54 54 (1492992)
I1214 23:21:34.620342 11603 layer_factory.hpp:76] Creating layer deconv4_2
I1214 23:21:34.620347 11603 net.cpp:111] Creating Layer deconv4_2
I1214 23:21:34.620350 11603 net.cpp:478] deconv4_2 <- deconv4_1
I1214 23:21:34.620355 11603 net.cpp:434] deconv4_2 -> deconv4_2
I1214 23:21:34.638162 11603 net.cpp:156] Setting up deconv4_2
I1214 23:21:34.638186 11603 net.cpp:164] Top shape: 1 512 54 54 (1492992)
I1214 23:21:34.638193 11603 layer_factory.hpp:76] Creating layer deBN4_2
I1214 23:21:34.638202 11603 net.cpp:111] Creating Layer deBN4_2
I1214 23:21:34.638206 11603 net.cpp:478] deBN4_2 <- deconv4_2
I1214 23:21:34.638211 11603 net.cpp:420] deBN4_2 -> deconv4_2 (in-place)
I1214 23:21:34.638231 11603 net.cpp:156] Setting up deBN4_2
I1214 23:21:34.638234 11603 net.cpp:164] Top shape: 1 512 54 54 (1492992)
I1214 23:21:34.638239 11603 layer_factory.hpp:76] Creating layer derelu4_2
I1214 23:21:34.638243 11603 net.cpp:111] Creating Layer derelu4_2
I1214 23:21:34.638247 11603 net.cpp:478] derelu4_2 <- deconv4_2
I1214 23:21:34.638249 11603 net.cpp:420] derelu4_2 -> deconv4_2 (in-place)
I1214 23:21:34.638320 11603 net.cpp:156] Setting up derelu4_2
I1214 23:21:34.638325 11603 net.cpp:164] Top shape: 1 512 54 54 (1492992)
I1214 23:21:34.638329 11603 layer_factory.hpp:76] Creating layer deconv4_3
I1214 23:21:34.638334 11603 net.cpp:111] Creating Layer deconv4_3
I1214 23:21:34.638336 11603 net.cpp:478] deconv4_3 <- deconv4_2
I1214 23:21:34.638341 11603 net.cpp:434] deconv4_3 -> deconv4_3
I1214 23:21:34.647150 11603 net.cpp:156] Setting up deconv4_3
I1214 23:21:34.647163 11603 net.cpp:164] Top shape: 1 256 54 54 (746496)
I1214 23:21:34.647169 11603 layer_factory.hpp:76] Creating layer deBN4_3
I1214 23:21:34.647176 11603 net.cpp:111] Creating Layer deBN4_3
I1214 23:21:34.647178 11603 net.cpp:478] deBN4_3 <- deconv4_3
I1214 23:21:34.647183 11603 net.cpp:420] deBN4_3 -> deconv4_3 (in-place)
I1214 23:21:34.647199 11603 net.cpp:156] Setting up deBN4_3
I1214 23:21:34.647203 11603 net.cpp:164] Top shape: 1 256 54 54 (746496)
I1214 23:21:34.647208 11603 layer_factory.hpp:76] Creating layer derelu4_3
I1214 23:21:34.647212 11603 net.cpp:111] Creating Layer derelu4_3
I1214 23:21:34.647215 11603 net.cpp:478] derelu4_3 <- deconv4_3
I1214 23:21:34.647218 11603 net.cpp:420] derelu4_3 -> deconv4_3 (in-place)
I1214 23:21:34.647282 11603 net.cpp:156] Setting up derelu4_3
I1214 23:21:34.647286 11603 net.cpp:164] Top shape: 1 256 54 54 (746496)
I1214 23:21:34.647289 11603 layer_factory.hpp:76] Creating layer unpool3
I1214 23:21:34.647294 11603 net.cpp:111] Creating Layer unpool3
I1214 23:21:34.647296 11603 net.cpp:478] unpool3 <- deconv4_3
I1214 23:21:34.647300 11603 net.cpp:478] unpool3 <- pool3_mask
I1214 23:21:34.647306 11603 net.cpp:434] unpool3 -> unpool3
I1214 23:21:34.647315 11603 net.cpp:156] Setting up unpool3
I1214 23:21:34.647320 11603 net.cpp:164] Top shape: 1 256 107 107 (2930944)
I1214 23:21:34.647322 11603 layer_factory.hpp:76] Creating layer deconv3_1
I1214 23:21:34.647326 11603 net.cpp:111] Creating Layer deconv3_1
I1214 23:21:34.647330 11603 net.cpp:478] deconv3_1 <- unpool3
I1214 23:21:34.647338 11603 net.cpp:434] deconv3_1 -> deconv3_1
I1214 23:21:34.651752 11603 net.cpp:156] Setting up deconv3_1
I1214 23:21:34.651763 11603 net.cpp:164] Top shape: 1 256 107 107 (2930944)
I1214 23:21:34.651768 11603 layer_factory.hpp:76] Creating layer deBN3_1
I1214 23:21:34.651773 11603 net.cpp:111] Creating Layer deBN3_1
I1214 23:21:34.651796 11603 net.cpp:478] deBN3_1 <- deconv3_1
I1214 23:21:34.651803 11603 net.cpp:420] deBN3_1 -> deconv3_1 (in-place)
I1214 23:21:34.651839 11603 net.cpp:156] Setting up deBN3_1
I1214 23:21:34.651844 11603 net.cpp:164] Top shape: 1 256 107 107 (2930944)
I1214 23:21:34.651855 11603 layer_factory.hpp:76] Creating layer derelu3_1
I1214 23:21:34.651859 11603 net.cpp:111] Creating Layer derelu3_1
I1214 23:21:34.651868 11603 net.cpp:478] derelu3_1 <- deconv3_1
I1214 23:21:34.651872 11603 net.cpp:420] derelu3_1 -> deconv3_1 (in-place)
I1214 23:21:34.651929 11603 net.cpp:156] Setting up derelu3_1
I1214 23:21:34.651934 11603 net.cpp:164] Top shape: 1 256 107 107 (2930944)
I1214 23:21:34.651937 11603 layer_factory.hpp:76] Creating layer deconv3_2
I1214 23:21:34.651942 11603 net.cpp:111] Creating Layer deconv3_2
I1214 23:21:34.651944 11603 net.cpp:478] deconv3_2 <- deconv3_1
I1214 23:21:34.651949 11603 net.cpp:434] deconv3_2 -> deconv3_2
I1214 23:21:34.656343 11603 net.cpp:156] Setting up deconv3_2
I1214 23:21:34.656352 11603 net.cpp:164] Top shape: 1 256 107 107 (2930944)
I1214 23:21:34.656355 11603 layer_factory.hpp:76] Creating layer deBN3_2
I1214 23:21:34.656360 11603 net.cpp:111] Creating Layer deBN3_2
I1214 23:21:34.656364 11603 net.cpp:478] deBN3_2 <- deconv3_2
I1214 23:21:34.656368 11603 net.cpp:420] deBN3_2 -> deconv3_2 (in-place)
I1214 23:21:34.656390 11603 net.cpp:156] Setting up deBN3_2
I1214 23:21:34.656395 11603 net.cpp:164] Top shape: 1 256 107 107 (2930944)
I1214 23:21:34.656400 11603 layer_factory.hpp:76] Creating layer derelu3_2
I1214 23:21:34.656404 11603 net.cpp:111] Creating Layer derelu3_2
I1214 23:21:34.656406 11603 net.cpp:478] derelu3_2 <- deconv3_2
I1214 23:21:34.656409 11603 net.cpp:420] derelu3_2 -> deconv3_2 (in-place)
I1214 23:21:34.656466 11603 net.cpp:156] Setting up derelu3_2
I1214 23:21:34.656471 11603 net.cpp:164] Top shape: 1 256 107 107 (2930944)
I1214 23:21:34.656473 11603 layer_factory.hpp:76] Creating layer deconv3_3
I1214 23:21:34.656478 11603 net.cpp:111] Creating Layer deconv3_3
I1214 23:21:34.656481 11603 net.cpp:478] deconv3_3 <- deconv3_2
I1214 23:21:34.656486 11603 net.cpp:434] deconv3_3 -> deconv3_3
I1214 23:21:34.658679 11603 net.cpp:156] Setting up deconv3_3
I1214 23:21:34.658685 11603 net.cpp:164] Top shape: 1 128 107 107 (1465472)
I1214 23:21:34.658689 11603 layer_factory.hpp:76] Creating layer deBN3_3
I1214 23:21:34.658694 11603 net.cpp:111] Creating Layer deBN3_3
I1214 23:21:34.658697 11603 net.cpp:478] deBN3_3 <- deconv3_3
I1214 23:21:34.658702 11603 net.cpp:420] deBN3_3 -> deconv3_3 (in-place)
I1214 23:21:34.658723 11603 net.cpp:156] Setting up deBN3_3
I1214 23:21:34.658727 11603 net.cpp:164] Top shape: 1 128 107 107 (1465472)
I1214 23:21:34.658731 11603 layer_factory.hpp:76] Creating layer derelu3_3
I1214 23:21:34.658735 11603 net.cpp:111] Creating Layer derelu3_3
I1214 23:21:34.658738 11603 net.cpp:478] derelu3_3 <- deconv3_3
I1214 23:21:34.658742 11603 net.cpp:420] derelu3_3 -> deconv3_3 (in-place)
I1214 23:21:34.658792 11603 net.cpp:156] Setting up derelu3_3
I1214 23:21:34.658797 11603 net.cpp:164] Top shape: 1 128 107 107 (1465472)
I1214 23:21:34.658799 11603 layer_factory.hpp:76] Creating layer unpool2
I1214 23:21:34.658804 11603 net.cpp:111] Creating Layer unpool2
I1214 23:21:34.658807 11603 net.cpp:478] unpool2 <- deconv3_3
I1214 23:21:34.658812 11603 net.cpp:478] unpool2 <- pool2_mask
I1214 23:21:34.658816 11603 net.cpp:434] unpool2 -> unpool2
I1214 23:21:34.658821 11603 net.cpp:156] Setting up unpool2
I1214 23:21:34.658825 11603 net.cpp:164] Top shape: 1 128 213 213 (5807232)
I1214 23:21:34.658828 11603 layer_factory.hpp:76] Creating layer deconv2_1
I1214 23:21:34.658831 11603 net.cpp:111] Creating Layer deconv2_1
I1214 23:21:34.658834 11603 net.cpp:478] deconv2_1 <- unpool2
I1214 23:21:34.658839 11603 net.cpp:434] deconv2_1 -> deconv2_1
I1214 23:21:34.659981 11603 net.cpp:156] Setting up deconv2_1
I1214 23:21:34.659986 11603 net.cpp:164] Top shape: 1 128 213 213 (5807232)
I1214 23:21:34.659991 11603 layer_factory.hpp:76] Creating layer deBN2_1
I1214 23:21:34.660002 11603 net.cpp:111] Creating Layer deBN2_1
I1214 23:21:34.660006 11603 net.cpp:478] deBN2_1 <- deconv2_1
I1214 23:21:34.660009 11603 net.cpp:420] deBN2_1 -> deconv2_1 (in-place)
I1214 23:21:34.660070 11603 net.cpp:156] Setting up deBN2_1
I1214 23:21:34.660075 11603 net.cpp:164] Top shape: 1 128 213 213 (5807232)
I1214 23:21:34.660081 11603 layer_factory.hpp:76] Creating layer derelu2_1
I1214 23:21:34.660090 11603 net.cpp:111] Creating Layer derelu2_1
I1214 23:21:34.660092 11603 net.cpp:478] derelu2_1 <- deconv2_1
I1214 23:21:34.660096 11603 net.cpp:420] derelu2_1 -> deconv2_1 (in-place)
I1214 23:21:34.660145 11603 net.cpp:156] Setting up derelu2_1
I1214 23:21:34.660149 11603 net.cpp:164] Top shape: 1 128 213 213 (5807232)
I1214 23:21:34.660152 11603 layer_factory.hpp:76] Creating layer deconv2_2
I1214 23:21:34.660157 11603 net.cpp:111] Creating Layer deconv2_2
I1214 23:21:34.660161 11603 net.cpp:478] deconv2_2 <- deconv2_1
I1214 23:21:34.660166 11603 net.cpp:434] deconv2_2 -> deconv2_2
I1214 23:21:34.660771 11603 net.cpp:156] Setting up deconv2_2
I1214 23:21:34.660776 11603 net.cpp:164] Top shape: 1 64 213 213 (2903616)
I1214 23:21:34.660781 11603 layer_factory.hpp:76] Creating layer deBN2_2
I1214 23:21:34.660786 11603 net.cpp:111] Creating Layer deBN2_2
I1214 23:21:34.660789 11603 net.cpp:478] deBN2_2 <- deconv2_2
I1214 23:21:34.660794 11603 net.cpp:420] deBN2_2 -> deconv2_2 (in-place)
I1214 23:21:34.660856 11603 net.cpp:156] Setting up deBN2_2
I1214 23:21:34.660859 11603 net.cpp:164] Top shape: 1 64 213 213 (2903616)
I1214 23:21:34.660864 11603 layer_factory.hpp:76] Creating layer derelu2_2
I1214 23:21:34.660867 11603 net.cpp:111] Creating Layer derelu2_2
I1214 23:21:34.660871 11603 net.cpp:478] derelu2_2 <- deconv2_2
I1214 23:21:34.660874 11603 net.cpp:420] derelu2_2 -> deconv2_2 (in-place)
I1214 23:21:34.661258 11603 net.cpp:156] Setting up derelu2_2
I1214 23:21:34.661269 11603 net.cpp:164] Top shape: 1 64 213 213 (2903616)
I1214 23:21:34.661273 11603 layer_factory.hpp:76] Creating layer unpool1
I1214 23:21:34.661278 11603 net.cpp:111] Creating Layer unpool1
I1214 23:21:34.661280 11603 net.cpp:478] unpool1 <- deconv2_2
I1214 23:21:34.661284 11603 net.cpp:478] unpool1 <- pool1_mask
I1214 23:21:34.661289 11603 net.cpp:434] unpool1 -> unpool1
I1214 23:21:34.661295 11603 net.cpp:156] Setting up unpool1
I1214 23:21:34.661299 11603 net.cpp:164] Top shape: 1 64 426 426 (11614464)
I1214 23:21:34.661301 11603 layer_factory.hpp:76] Creating layer deconv1_1
I1214 23:21:34.661306 11603 net.cpp:111] Creating Layer deconv1_1
I1214 23:21:34.661309 11603 net.cpp:478] deconv1_1 <- unpool1
I1214 23:21:34.661314 11603 net.cpp:434] deconv1_1 -> deconv1_1
I1214 23:21:34.661839 11603 net.cpp:156] Setting up deconv1_1
I1214 23:21:34.661845 11603 net.cpp:164] Top shape: 1 64 426 426 (11614464)
I1214 23:21:34.661850 11603 layer_factory.hpp:76] Creating layer deBN1_1
I1214 23:21:34.661855 11603 net.cpp:111] Creating Layer deBN1_1
I1214 23:21:34.661859 11603 net.cpp:478] deBN1_1 <- deconv1_1
I1214 23:21:34.661862 11603 net.cpp:420] deBN1_1 -> deconv1_1 (in-place)
I1214 23:21:34.662083 11603 net.cpp:156] Setting up deBN1_1
I1214 23:21:34.662088 11603 net.cpp:164] Top shape: 1 64 426 426 (11614464)
I1214 23:21:34.662093 11603 layer_factory.hpp:76] Creating layer derelu1_1
I1214 23:21:34.662097 11603 net.cpp:111] Creating Layer derelu1_1
I1214 23:21:34.662099 11603 net.cpp:478] derelu1_1 <- deconv1_1
I1214 23:21:34.662104 11603 net.cpp:420] derelu1_1 -> deconv1_1 (in-place)
I1214 23:21:34.662155 11603 net.cpp:156] Setting up derelu1_1
I1214 23:21:34.662160 11603 net.cpp:164] Top shape: 1 64 426 426 (11614464)
I1214 23:21:34.662163 11603 layer_factory.hpp:76] Creating layer deconv1_2
I1214 23:21:34.662168 11603 net.cpp:111] Creating Layer deconv1_2
I1214 23:21:34.662170 11603 net.cpp:478] deconv1_2 <- deconv1_1
I1214 23:21:34.662175 11603 net.cpp:434] deconv1_2 -> deconv1_2
I1214 23:21:34.662664 11603 net.cpp:156] Setting up deconv1_2
I1214 23:21:34.662669 11603 net.cpp:164] Top shape: 1 64 426 426 (11614464)
I1214 23:21:34.662678 11603 layer_factory.hpp:76] Creating layer deBN1_2
I1214 23:21:34.662683 11603 net.cpp:111] Creating Layer deBN1_2
I1214 23:21:34.662686 11603 net.cpp:478] deBN1_2 <- deconv1_2
I1214 23:21:34.662689 11603 net.cpp:420] deBN1_2 -> deconv1_2 (in-place)
I1214 23:21:34.662912 11603 net.cpp:156] Setting up deBN1_2
I1214 23:21:34.662917 11603 net.cpp:164] Top shape: 1 64 426 426 (11614464)
I1214 23:21:34.662922 11603 layer_factory.hpp:76] Creating layer derelu1_2
I1214 23:21:34.662931 11603 net.cpp:111] Creating Layer derelu1_2
I1214 23:21:34.662935 11603 net.cpp:478] derelu1_2 <- deconv1_2
I1214 23:21:34.662938 11603 net.cpp:420] derelu1_2 -> deconv1_2 (in-place)
I1214 23:21:34.662986 11603 net.cpp:156] Setting up derelu1_2
I1214 23:21:34.662991 11603 net.cpp:164] Top shape: 1 64 426 426 (11614464)
I1214 23:21:34.662993 11603 layer_factory.hpp:76] Creating layer score-map1
I1214 23:21:34.662997 11603 net.cpp:111] Creating Layer score-map1
I1214 23:21:34.663000 11603 net.cpp:478] score-map1 <- deconv1_2
I1214 23:21:34.663004 11603 net.cpp:434] score-map1 -> score-map1
I1214 23:21:34.663223 11603 net.cpp:156] Setting up score-map1
I1214 23:21:34.663228 11603 net.cpp:164] Top shape: 1 1 426 426 (181476)
I1214 23:21:34.663233 11603 layer_factory.hpp:76] Creating layer loss
I1214 23:21:34.663239 11603 net.cpp:111] Creating Layer loss
I1214 23:21:34.663241 11603 net.cpp:478] loss <- label
I1214 23:21:34.663244 11603 net.cpp:478] loss <- score-map1
I1214 23:21:34.663251 11603 net.cpp:434] loss -> loss
I1214 23:21:34.663260 11603 net.cpp:156] Setting up loss
I1214 23:21:34.663264 11603 net.cpp:164] Top shape: (1)
…
